artifacts/autoencoder.pt (torch, 8624 bytes, 8 tensors)

encoder.0.weight f4 [16, 31]
0	0x3d9db596	0.077006504
1	0xbdabb011	-0.083831914
2	0x3bb192a2	0.0054190913
3	0xbebc0ec0	-0.36730003
4	0xbdb943f4	-0.09046164
5	0xbe80c77e	-0.251522
6	0xbe14c5e8	-0.1452862
7	0xbdbe3309	-0.09287078
8	0xbeabaeb3	-0.33531722
9	0xbed5002a	-0.41601688
10	0x3d351eda	0.044218875
11	0xbe4f465e	-0.20241687
12	0x3cb6f5bd	0.022333974
13	0xbdcbb76a	-0.09947093
14	0xbea726ac	-0.32646692
15	0xbe2c0537	-0.16798864
16	0xbe4335ef	-0.19063543
17	0xbe12abc2	-0.14323333
18	0xbda53190	-0.08066094
19	0xbe1d78dd	-0.15378137
20	0x3ddb1681	0.10697652
21	0x3e88e449	0.26736668
22	0xbdd06ef9	-0.10177416
23	0x3e488200	0.19580841
24	0x3f21a9de	0.6314982
25	0x3edd1847	0.43182585
26	0x3ec30d6e	0.38096184
27	0x3e53dba9	0.20689262
28	0x3cc0afea	0.023521382
29	0xbcba5706	-0.022746574
30	0xbde1236a	-0.10993083
31	0xbdd5ef3c	-0.10446021
32	0xbe54e0d4	-0.2078889
33	0xbee4afce	-0.44665378
34	0xbd7d9498	-0.06190929
35	0xbe4bf9d3	-0.19919519
36	0x3dd9cbf8	0.10634607
37	0x3da60b20	0.08107591
38	0x3d3abd83	0.04559089
39	0xbf97cf6e	-1.1860178
40	0xbeaa4254	-0.3325373
41	0x3e096ce6	0.13420448
42	0xbe443561	-0.19160987
43	0xbd070e11	-0.0329724
44	0xbe59bcdd	-0.21263452
45	0xbda9c03b	-0.08288618
46	0xbd9b1f80	-0.075743675
47	0x3e537ba1	0.2065263
48	0x3d9d53b0	0.07681978
49	0x3eca0fb1	0.39465097
50	0x3c45f37a	0.012081975
51	0xbe80d154	-0.25159705
52	0xbec84b48	-0.39119935
53	0x3e14f6f3	0.14547329
54	0x3d9a3e0b	0.07531365
55	0xbdfd9f2d	-0.12383876
56	0xbe44c227	-0.19214688
57	0xbcd41f10	-0.025893718
58	0xbeba6ee7	-0.36412737
59	0xbea65caf	-0.32492587
60	0xbf00ce78	-0.50315046
61	0xbe872fd2	-0.26403672
62	0x3eaff73a	0.34368306
63	0x3dc63cb1	0.09679545
64	0x3e477a6e	0.19480297
65	0x3c53eafc	0.012934443
66	0x3e011758	0.12606561
67	0x3e0fad43	0.14030938
68	0x3ee2de4e	0.4431023
69	0x3ed32780	0.41241074
70	0x3c63b75b	0.013898696
71	0x3f1250f2	0.5715476
72	0x3f18dab8	0.5970874
73	0x3d34d10e	0.044144683
74	0xbe1ba8b3	-0.15201072
75	0x3e29e074	0.16589528
76	0x3d17d3fa	0.03706739
77	0xbd107d7d	-0.035275925
78	0x3dae712a	0.08517678
79	0x3b3c91c3	0.0028773404
80	0x3e421dfb	0.18956749
81	0xbd06dd3b	-0.032925826
82	0xbe26acef	-0.16276906
83	0x3c1351d6	0.008991679
84	0x3d7d8fd3	0.06190474
85	0x3ddab2f3	0.10678663
86	0xbe1a6164	-0.15076214
87	0x3d15a712	0.036536284
88	0x3d828bb9	0.06374306
89	0xbdf3ddfc	-0.119075745
90	0x3cf32072	0.029678557
91	0xbe1cd3e8	-0.15315211
92	0xbd8138de	-0.06309675
93	0xbdaedc84	-0.08538154
94	0x3d8cc586	0.06873612
95	0xbe685847	-0.22689925
96	0x3be06f54	0.006849209
97	0xbd5a0ba7	-0.05323377
98	0x3eccd56b	0.40006575
99	0x3ea15956	0.3151347
100	0x3ecddb1c	0.4020623
101	0xbe28bbb2	-0.1647785
102	0x3c11fb76	0.008910051
103	0x3ccf6a5f	0.025319276
104	0x3ef72ec8	0.4827788
105	0x3e8ad0b2	0.27112347
106	0x3efd26eb	0.49443755
107	0x3e384e7f	0.17998694
108	0x3e5e8d92	0.21733692
109	0xbc833c8a	-0.016020078
110	0xbe890869	-0.2676423
111	0x3eb674ff	0.35636136
112	0xbd9175d7	-0.07102554
113	0xbe58f8ec	-0.21188706
114	0xbea00740	-0.3125553
115	0xbe81e73b	-0.25371727
116	0x3e41c0e3	0.18921237
117	0x3c3ef788	0.011655696
118	0xbca99a04	-0.020703323
119	0x3dcef281	0.10104848
120	0xbe5c5812	-0.21517971
121	0x3df638fb	0.12022587
122	0x3dde7cfe	0.10863684
123	0x3e9e5ef4	0.30931818
124	0x3d13cd9d	0.03608476
125	0x3eaafa50	0.33394098
126	0xbc8eaa88	-0.0174153
127	0x3d4c73fc	0.0499153
128	0x3e121638	0.14266288
129	0x3e85f58d	0.26163903
130	0x3e1e949e	0.1548638
131	0xbe0d09cb	-0.13773267
132	0x3ecce507	0.40018484
133	0xbc92e7ae	-0.01793274
134	0x3d6ff216	0.05858048
135	0x3e145729	0.14486374
136	0xbe483acf	-0.19553684
137	0x3d7493b0	0.05971116
138	0x3e9bf3a1	0.30459312
139	0x3b671afb	0.0035263884
140	0x3e9464f9	0.28983286
141	0x3e9e7c18	0.3095405
142	0xbb32caa9	-0.002728144
143	0x3da06448	0.07831627
144	0x3e8902a3	0.26759824
145	0x3e23b336	0.15986332
146	0x3e1516cc	0.14559478
147	0x3e2cf20a	0.16889206
148	0xbbf9839a	-0.007614565
149	0x3df27b3c	0.11839911
150	0x3dc89288	0.097935736
151	0x3e2fd162	0.17169717
152	0x3e717142	0.2357836
153	0x3eac9708	0.33708978
154	0x3e919e7c	0.28441226
155	0xbe1d4c32	-0.15361097
156	0x3cd17369	0.025567727
157	0xbda22cf6	-0.07918732
158	0x3e1c4862	0.15261987
159	0xbd29f581	-0.041493896
160	0x3e1f2783	0.15542416
161	0x3f415e7a	0.75534785
162	0x3f43981b	0.7640397
163	0x3e8e444c	0.2778648
164	0xbe5dbcd4	-0.21654063
165	0xbee8f146	-0.45496577
166	0xbdb7ac00	-0.08968353
167	0x3dea7e4b	0.1144987
168	0x3da9986e	0.08281027
169	0xbf023448	-0.50861025
170	0xbcf27e09	-0.029601114
171	0xbe42b52a	-0.19014421
172	0xbdb6217b	-0.08893105
173	0x3d4f5e8c	0.050627276
174	0xbd7574bd	-0.059925783
175	0x3d1b09da	0.037851192
176	0xbc01fa02	-0.007933142
177	0x3c8098d2	0.01569787
178	0x3da4b974	0.08043185
179	0xbcebd1b1	-0.028786512
180	0xbe0a3db8	-0.13500106
181	0xbd9f3009	-0.07772834
182	0xbd39d248	-0.045366555
183	0x3e8d796a	0.27631694
184	0x3ccc87b0	0.024967045
185	0x3e4e45ff	0.20143889
186	0xbe2849e4	-0.16434437
187	0x3d316df1	0.04331774
188	0x3e9069c6	0.282057
189	0x3c58f1e4	0.013241265
190	0x3d78e938	0.06076929
191	0x3e412ecc	0.18865508
192	0x3f383fe1	0.7197247
193	0x3f57d0ce	0.84302986
194	0xbd7ffe0f	-0.06249815
195	0x3cfdae3b	0.030966869
196	0x3dd260cf	0.10272371
197	0xbe72f01f	-0.23724411
198	0xbe8ac56a	-0.2710374
199	0xbe912290	-0.28346682
200	0xbea04a4f	-0.31306693
201	0xbe7de868	-0.24795687
202	0xbd80857c	-0.0627546
203	0xbeec9be5	-0.46212688
204	0xbdf68388	-0.12036806
205	0xbe06992c	-0.13144368
206	0xbd3c3bef	-0.045955595
207	0x3e1aeb42	0.15128806
208	0x3e3cc875	0.18435843
209	0xbdda4a80	-0.10658741
210	0xbdab49b9	-0.08363671
211	0xbe3798e5	-0.17929418
212	0x3e694685	0.22780807
213	0xbd51c8ac	-0.051216766
214	0xbdf89008	-0.12136847
215	0xbdb2ad6d	-0.087244846
216	0x3e029780	0.12753105
217	0xbe7842c4	-0.24244219
218	0x3d830f8b	0.06399449
219	0xbe20f7b1	-0.15719487
220	0xbdfd9ea5	-0.12383775
221	0x3e0771bb	0.13226978
222	0x3e0cfc12	0.13768032
223	0x3e9d8231	0.3076339
224	0x3def7b42	0.116934314
225	0x3ecfa520	0.40555668
226	0x3e687965	0.22702558
227	0xbe9f55fc	-0.31120288
228	0x3eccf155	0.40027872
229	0xbb8cd0a9	-0.004297335
230	0xbe0c4b10	-0.13700509
231	0x3e153cd1	0.14573981
232	0x3e43cc32	0.19120863
233	0xbc912337	-0.017716987
234	0xbe4b6559	-0.1986288
235	0x3dae029b	0.08496591
236	0x3e9dedf6	0.30845612
237	0xbc7e1d96	-0.0155099835
238	0xbe6aee7f	-0.22942542
239	0x3e06b0f4	0.1315344
240	0x3eb148c1	0.3462582
241	0xbda92399	-0.08258743
242	0xbe1dd1d9	-0.15412082
243	0x3d6c0e0b	0.05763058
244	0xbd3af322	-0.045642026
245	0xbe7ba38b	-0.24574105
246	0x3b88d0b6	0.004175271
247	0xbdf1f2a1	-0.11813856
248	0xbd44e5aa	-0.048070587
249	0xbd43dbb2	-0.04781694
250	0x3c9679b4	0.01836858
251	0x3e4c728b	0.1996557
252	0x3db37894	0.08763233
253	0x3e4fee0e	0.20305654
254	0x3e5cb0b3	0.2155178
255	0x3e4938f5	0.19650634

encoder.0.bias f4 [16]
0	0x3e7f2bcf	0.24919055
1	0x3fc2a5eb	1.5206884
2	0x3f575d8e	0.8412713
3	0x3f6f2e64	0.9343016
4	0x3c35b31d	0.011090067
5	0x3f22b0c9	0.63551
6	0x3fd50402	1.6641848
7	0x3f9d0aad	1.2268883
8	0x3b905773	0.004404956
9	0xbd5176dd	-0.051138747
10	0x3f5e0dd4	0.8673985
11	0x3f27d1fd	0.6555479
12	0x3fb1de40	1.389595
13	0x3f92f0db	1.1479753
14	0xbc9a8456	-0.01886193
15	0x3ea95085	0.33069244

encoder.2.weight f4 [8, 16]
0	0x3e61870f	0.22024177
1	0x3ea3d000	0.3199463
2	0x3f1335a3	0.5750372
3	0x3f06da37	0.5267672
4	0x3d0fa6c4	0.03507115
5	0x3db2f575	0.087382235
6	0x3e7ab63e	0.24483582
7	0x3f1a024c	0.60159755
8	0x3e319b57	0.17344414
9	0xbe87bf47	-0.2651312
10	0x3f080d2b	0.5314509
11	0x3f0090ec	0.50221133
12	0xbea11555	-0.31461588
13	0x3e04231f	0.12904023
14	0x3e3a86bb	0.18215458
15	0xbe8c7260	-0.2743101
16	0xbe35cac2	-0.17753127
17	0x3bbdaebc	0.005788652
18	0x3f258bfc	0.64666724
19	0xbd4d73d5	-0.050159294
20	0x3e9d3375	0.3070332
21	0x3f03ee5e	0.51535594
22	0x3f2194ca	0.6311766
23	0x3e727be4	0.23680073
24	0x3f0af610	0.5428171
25	0x3eabfc3c	0.33590877
26	0x3e96b090	0.29431581
27	0xbd5d412f	-0.054017242
28	0xbdf15466	-0.11783676
29	0x3db72f94	0.08944622
30	0xbd9e19d7	-0.07719772
31	0x3f0a1c1d	0.5394915
32	0x3d0f25a5	0.03494801
33	0x3ed79767	0.42107698
34	0x3de77eee	0.11303507
35	0x3e20c2be	0.15699288
36	0x3db52593	0.08845057
37	0x3e827468	0.25479436
38	0x3e463e2e	0.19359657
39	0xbe8548ab	-0.26032004
40	0x3e349017	0.17633091
41	0xbeee24cd	-0.46512452
42	0x3d2fcf87	0.042922523
43	0x3f1d6fd2	0.6149875
44	0x3efea426	0.4973461
45	0x3ecbc3e7	0.397979
46	0xbe0455d9	-0.12923373
47	0x3ce39976	0.027783137
48	0x3ec6e6d7	0.38847992
49	0x3e45b585	0.19307525
50	0xbe1acf18	-0.15118062
51	0xbd18e1ac	-0.037324592
52	0xbe8f6fa5	-0.28014866
53	0x3f22b12d	0.635516
54	0x3f1c5d99	0.6108032
55	0x3e058dd0	0.13042378
56	0xbe3a4fdc	-0.18194526
57	0x3da86d92	0.08224024
58	0xbe08b26c	-0.13349313
59	0x3e223061	0.15838768
60	0xbd28ebff	-0.04124069
61	0x3ed6fe47	0.41990873
62	0x3e9487f7	0.29009983
63	0x3d9ad216	0.07559602
64	0x3e844acf	0.25838324
65	0x3ef567dd	0.47930804
66	0x3f0c9c9f	0.54926485
67	0x3e9f9d19	0.31174543
68	0xbe73a281	-0.23792459
69	0x3e4e2330	0.2013061
70	0x3e57fe7e	0.21093175
71	0xbea396d5	-0.31951013
72	0xbd031963	-0.032006633
73	0x3e4fcd8d	0.20293255
74	0x3edf37d4	0.4359728
75	0x3d6490a7	0.055802014
76	0x3e8cb357	0.27480575
77	0x3e393b7a	0.18089095
78	0x3e8a01fe	0.26954645
79	0xbcc067d3	-0.023487007
80	0x3ef0e9c0	0.47053337
81	0x3edabcb2	0.42722088
82	0xbccdbf23	-0.025115555
83	0xbde4b5bc	-0.111674756
84	0x3e04fa11	0.12986018
85	0xbe1c1800	-0.1524353
86	0x3e007373	0.1254404
87	0x3e2220a0	0.15832758
88	0xbec19c86	-0.3781473
89	0xbd60f746	-0.05492332
90	0x3efad45b	0.4899014
91	0x3e4b7afb	0.19871132
92	0x3e75d058	0.24005258
93	0x3ee5956b	0.4484056
94	0xbe7d4af3	-0.24735622
95	0x3ecd764e	0.40129322
96	0xbe1023d8	-0.14076173
97	0x3ef0bcd1	0.47019055
98	0xbe0aff42	-0.13573936
99	0x3e320840	0.1738596
100	0xbe1234a6	-0.14277896
101	0x3d57dd69	0.052701388
102	0xbd8ac5f7	-0.0677604
103	0x3f095e15	0.5365918
104	0x3ed8536b	0.42251143
105	0x3e1b4c8b	0.15165918
106	0x3e5e2ac0	0.21695995
107	0x3c113e82	0.008865001
108	0x3e647452	0.22309998
109	0x3e9f3bf2	0.31100422
110	0x3dc2cfb3	0.09512272
111	0x3c269d46	0.010169333
112	0x3e1b1baa	0.15147272
113	0x3e88aa4f	0.26692435
114	0x3db766d5	0.089551605
115	0x3f203dbe	0.6259421
116	0x3eff7ca4	0.4989978
117	0x3f2bea7b	0.67154664
118	0x3ba8c715	0.0051506856
119	0x3edb1e0c	0.4279636
120	0x3de7ef22	0.11324908
121	0x3e7c4964	0.24637371
122	0xbe8f8291	-0.28029302
123	0xbc90577a	-0.017619837
124	0x3f1b5c52	0.60687745
125	0x3e9f2633	0.3108383
126	0xbecdf5f1	-0.402267
127	0xbe96a4e0	-0.29422665

encoder.2.bias f4 [8]
0	0x3e4b133a	0.19831553
1	0x3e275891	0.16342379
2	0x3eedee7b	0.4647101
3	0x3e973858	0.29535174
4	0x3ec111a5	0.37708774
5	0x3ee8bc0b	0.45455965
6	0xbd2b48a5	-0.041817326
7	0x3d660199	0.056153867

decoder.0.weight f4 [16, 8]
0	0x3c342078	0.010994069
1	0x3f08b6b1	0.53403765
2	0x3d9fee10	0.07809079
3	0xbe94b689	-0.29045513
4	0xbddfe011	-0.10931409
5	0xbe254498	-0.16139448
6	0xbe801e97	-0.25023338
7	0x3e172e7a	0.14763823
8	0x3eef7557	0.4676921
9	0x3effc382	0.49953848
10	0xbe4831c5	-0.19550236
11	0xbe734b28	-0.23759139
12	0xbcba80d2	-0.022766504
13	0xbeb62941	-0.3557835
14	0x3e3c4899	0.18387069
15	0x3dcf97be	0.101363644
16	0xbe5dd175	-0.21661933
17	0xbc978a54	-0.018498577
18	0x3f2360b7	0.6381945
19	0x3ea6b3b9	0.32558993
20	0x3ed88fc2	0.42297179
21	0xbea0edbe	-0.31431383
22	0x3ef27c92	0.47360665
23	0xbe3f9a0e	-0.18711111
24	0x3e7ef9d1	0.24899985
25	0x3d5bd8da	0.053673603
26	0xbea2d0a8	-0.31799817
27	0x3f0f4dfb	0.55978364
28	0x3c889365	0.016671846
29	0x3ca4ee28	0.020133093
30	0xbeaace51	-0.33360532
31	0x3ecbc155	0.39795938
32	0x3eca76bc	0.39543712
33	0x3eb49401	0.35269168
34	0xbea2f957	-0.31830856
35	0xbe94f6ec	-0.29094636
36	0x3e0fcf14	0.14043838
37	0xbe6de741	-0.23232748
38	0xbe30c458	-0.17262399
39	0xbebd63ab	-0.36990103
40	0xbde64c36	-0.11245005
41	0xbcae532c	-0.021279894
42	0x3ebfc2bd	0.3745326
43	0x3de542ad	0.11194358
44	0x3d1b44be	0.037907355
45	0xbe469c1b	-0.19395487
46	0xbe5fb0be	-0.21844766
47	0x3ed56780	0.41680527
48	0x3ef2c844	0.47418416
49	0xbe9af8b7	-0.3026788
50	0xbe8ee4b8	-0.27908874
51	0xbd7b1cca	-0.061306752
52	0x3eaa9a13	0.33320674
53	0x3ed241e2	0.4106589
54	0xbea378ac	-0.31928003
55	0x3e725784	0.23666197
56	0x3e242908	0.16031277
57	0xbe1c91e4	-0.15290028
58	0xbe6507f6	-0.22366318
59	0xbd42c7d7	-0.047553863
60	0x3f2e891c	0.6817796
61	0xbe235dec	-0.15953797
62	0x3d8bb428	0.068214715
63	0x3eb3551d	0.35025874
64	0x3e08418e	0.13306257
65	0xbec46f35	-0.38366094
66	0x3f0889c8	0.5333524
67	0x3d9e401d	0.077270724
68	0x3f2017b4	0.6253617
69	0x3e81199b	0.25214848
70	0xbebb55d9	-0.36588934
71	0xbeba8e4e	-0.36436695
72	0xbe4889dd	-0.1958384
73	0x3ec20f21	0.37902167
74	0xbdcc02dd	-0.09961484
75	0x3e760592	0.24025562
76	0x3eb820e3	0.3596259
77	0x3e82d1a9	0.25550583
78	0xbe7dfb92	-0.24802998
79	0xbe20a026	-0.15686092
80	0xbf0d00ad	-0.55079156
81	0xbe363173	-0.17792301
82	0x3eb4754f	0.3524575
83	0x3f2b9fa7	0.67040485
84	0x3e9262ed	0.285911
85	0xbe7ce0bc	-0.24695104
86	0xbe5d63fd	-0.21620174
87	0x3b2ba56c	0.0026191128
88	0x3ef2f878	0.47455192
89	0xbe031a8b	-0.12803094
90	0x3e428ba5	0.18998583
91	0x3de597f7	0.112106256
92	0x3e6bd5d0	0.23030782
93	0xbef8bf65	-0.48583522
94	0x3ebb82c3	0.366232
95	0xbe90a4c2	-0.282507
96	0xbdcd6d0f	-0.10030567
97	0x3e266033	0.16247635
98	0x3e9a2113	0.3010336
99	0xbeca0631	-0.3945785
100	0x3d729d9c	0.05923234
101	0x3f143e3b	0.57907456
102	0x3e5e45a2	0.2170625
103	0x3e9b4354	0.30324805
104	0x3f0cf2ca	0.55057967
105	0xbe53a10e	-0.20666906
106	0x3f07d731	0.5306273
107	0xbe83d823	-0.25750837
108	0x3ce10b20	0.027471125
109	0xbf03f619	-0.5154739
110	0xbd82df1a	-0.063902095
111	0x3e99a320	0.30007267
112	0x3da1f551	0.079081185
113	0x3cc773a1	0.024347128
114	0xbea3ae46	-0.31968898
115	0x3e6a9de5	0.22911794
116	0xbecf8b72	-0.40536076
117	0x3e27e213	0.16394834
118	0x3ef9284f	0.48663566
119	0x3ec751f7	0.38929722
120	0x3edae362	0.42751604
121	0x3d93844c	0.07202968
122	0x3f28643e	0.6577796
123	0x3d36c813	0.0446244
124	0xbe27cf81	-0.1638775
125	0x3e6ccaf8	0.23124301
126	0xbed8288a	-0.4221843
127	0x3dbe0f3a	0.09280248

decoder.0.bias f4 [16]
0	0xbedbee7a	-0.4295538
1	0x3ec5b666	0.3861572
2	0xbe96eafa	-0.29476148
3	0xbea625d6	-0.32450742
4	0xbf5e84b1	-0.8692122
5	0x3f1380e7	0.57618564
6	0x3ed82ad3	0.42220172
7	0xbde001b0	-0.10937822
8	0x3e7270b9	0.23675813
9	0x3f066b08	0.52507067
10	0x3d9a3b82	0.075308815
11	0xbd99b642	-0.07505466
12	0xbf2d28ad	-0.6764019
13	0x3df75581	0.120768555
14	0x3e4515cd	0.19246598
15	0xbe6c0d45	-0.23051937

decoder.2.weight f4 [31, 16]
0	0x3e0ce91f	0.13760804
1	0x3e25e0b4	0.16198999
2	0x3c06b391	0.008221523
3	0xbd911cbd	-0.070855595
4	0xbed89783	-0.42303094
5	0xbe7e5c85	-0.24839981
6	0x3e5ea832	0.21743849
7	0x3eb792f7	0.35854313
8	0xbcb69b41	-0.022290828
9	0x3e70952e	0.23494408
10	0x3b9bf15d	0.0047589974
11	0xbe8f392d	-0.2797331
12	0x3df0c6a2	0.11756636
13	0x3dd09bbf	0.10185956
14	0xbed4d6f9	-0.4157026
15	0xbebd3949	-0.36957768
16	0xbe1987bb	-0.14993183
17	0x3df739bf	0.12071561
18	0xbde71e3a	-0.11285062
19	0xbaf00924	-0.0018313271
20	0x3d60f39c	0.054919824
21	0x3ef3e015	0.476319
22	0x3c73f373	0.014889586
23	0xbe743f93	-0.23852377
24	0xbe0c4d13	-0.13701276
25	0xbe07dab4	-0.13267022
26	0x3c7ffe32	0.01562457
27	0xbe12caf5	-0.14335234
28	0x3d0e93e5	0.034809012
29	0x3c78928d	0.015171659
30	0xbe09f7c3	-0.1347342
31	0x3e51119d	0.20416875
32	0x3b0ec2f4	0.0021783682
33	0x3ec65166	0.38733977
34	0xbe3f9f0d	-0.18713017
35	0xbd8083d2	-0.06275143
36	0xbeec7d8d	-0.46189538
37	0xbe38734c	-0.18012732
38	0x3cbc59ca	0.022992034
39	0xbe46c53c	-0.19411176
40	0x3e382244	0.17981821
41	0x3ea53db4	0.32273638
42	0xbc5c6d7b	-0.013453837
43	0xbdb71b32	-0.08940734
44	0xbeb9b63e	-0.36271852
45	0x3e435108	0.1907388
46	0xbe82fa1c	-0.25581443
47	0x3db0490d	0.08607683
48	0xbe00399f	-0.1252198
49	0x3e424c86	0.18974504
50	0xbe44799e	-0.19187018
51	0xbdacf98f	-0.08446037
52	0xbd863a86	-0.06554131
53	0x3e98f3ec	0.29873598
54	0xbdb162bc	-0.0866141
55	0xbe1696ac	-0.14705914
56	0xbdad32da	-0.08456965
57	0x3b0debfd	0.0021655553
58	0x3aca0193	0.0015411846
59	0xbe7bdfbf	-0.24597071
60	0xbe311a0e	-0.17295095
61	0x3dd84691	0.105603345
62	0xbe0a88b6	-0.13528714
63	0x3ec0fd0e	0.37693065
64	0xbd657efa	-0.056029297
65	0x3e0c2031	0.13684155
66	0xbdb12d37	-0.08651202
67	0xbc5c4d5a	-0.013446176
68	0xba8d8a6b	-0.0010798698
69	0x3eb92ce6	0.36167067
70	0x3b4b96cc	0.0031065224
71	0xbe583d33	-0.21117096
72	0xbdcda9d6	-0.10042159
73	0xbe072f94	-0.13201743
74	0x3d1d521d	0.038408387
75	0xbe7a36e0	-0.24434996
76	0xbcd093d0	-0.025461107
77	0x3dd9aa14	0.10628143
78	0xbe45cec9	-0.19317164
79	0x3e7818ef	0.24228261
80	0xbe23aec4	-0.15984637
81	0x3e94e01f	0.2907724
82	0xbe1f2e11	-0.15544917
83	0x3ccd6dd0	0.025076777
84	0xbedee84a	-0.43536597
85	0xbf2254be	-0.63410556
86	0xbe0831f4	-0.13300306
87	0x3e6dd942	0.23227409
88	0xbe3cf825	-0.18454035
89	0xbdf083d0	-0.11743891
90	0x3edc4fd3	0.4302965
91	0xbdc0c088	-0.094117224
92	0x3e8fdd40	0.28098488
93	0xbc838d66	-0.016058635
94	0xbe1bbf3e	-0.15209672
95	0x3eb85c11	0.3600774
96	0x3d7d5ded	0.061857153
97	0x3dc3adbb	0.09554621
98	0x3e6bde58	0.23034036
99	0x3e991e8b	0.29906115
100	0x3e94e2d4	0.29079306
101	0xbea9a259	-0.33131674
102	0xbe3b3015	-0.1828006
103	0x3e4f4b8d	0.20243664
104	0xbd91f93b	-0.07127615
105	0xbda9abb0	-0.082847
106	0xbe2651a3	-0.1624208
107	0xbe9a4b36	-0.30135506
108	0xbdcc4c3c	-0.09975478
109	0x3d50bc16	0.050960623
110	0xbd5683f2	-0.052371927
111	0x3e2bd0ad	0.16778822
112	0xbd350086	-0.044189952
113	0xbd648a28	-0.05579582
114	0x3e55e5a6	0.20888385
115	0x3ecc006a	0.39844066
116	0xbd93873c	-0.07203528
117	0xbe3060e3	-0.1722446
118	0xbe3b5328	-0.1829344
119	0x3e442498	0.19154584
120	0xbe67c5c5	-0.22634037
121	0x3d2d9fe1	0.0423888
122	0xbeab87c1	-0.3350201
123	0xbd627830	-0.0552904
124	0xbd888438	-0.06665844
125	0x3d6ab3fb	0.05730055
126	0xbe202ab6	-0.15641293
127	0x3e21d178	0.15802562
128	0x3eb76315	0.3581778
129	0x3ea8d997	0.32978508
130	0xbe8e5595	-0.2779967
131	0x3e53bbbb	0.20677082
132	0xbdd65fcc	-0.104674906
133	0xbe77696f	-0.24161313
134	0xbf23fa6b	-0.6405398
135	0x3dc16773	0.094435595
136	0x3f6965b7	0.9117083
137	0xbe82d638	-0.2555406
138	0x3db5d798	0.08879012
139	0xbec90c78	-0.39267325
140	0x3d324b79	0.043529008
141	0x3df0bb8c	0.11754522
142	0x3ee9352d	0.45548382
143	0xbe66acf1	-0.2252691
144	0x3e117838	0.14206016
145	0x3d0952a7	0.03352609
146	0xbe530cc6	-0.20610341
147	0xbdedb25a	-0.116062835
148	0x3f329c5c	0.69769835
149	0xbd222019	-0.039581392
150	0xbc150411	-0.009095208
151	0x3dd0a0b7	0.10186904
152	0xbd2a8e0d	-0.041639376
153	0xbdbb4d57	-0.09145611
154	0x3e9a361f	0.30119416
155	0x3e1b9c3a	0.15196314
156	0x3e1aba17	0.1511005
157	0xbdfcf620	-0.12351632
158	0xbdf53d7d	-0.119746186
159	0x3d85948d	0.065224744
160	0xbe0ed7ab	-0.13949458
161	0x3e982cc7	0.29721662
162	0xbe0f82c4	-0.14014727
163	0xbcb27834	-0.021785833
164	0xbe541c8e	-0.20714018
165	0x3da707ce	0.081557855
166	0xbe31f61e	-0.17379043
167	0x3eac33d4	0.33633292
168	0x3e9a0232	0.300798
169	0x3e498b4f	0.19682048
170	0xbe6079e1	-0.21921493
171	0xbe7afc6a	-0.24510351
172	0x3e76ca87	0.24100696
173	0xbe2b47da	-0.16726628
174	0xbef3e275	-0.4763371
175	0xbda0be11	-0.07848752
176	0xbe7f4c5f	-0.24931477
177	0x3eab565f	0.33464333
178	0xbe8e3287	-0.27772924
179	0x3d49efcf	0.049300965
180	0xbeb481c8	-0.35255265
181	0xbf323c88	-0.69623613
182	0xbcca7848	-0.024715558
183	0x3e1d4bf8	0.15361011
184	0xbe10894f	-0.14114879
185	0xbe7c6db2	-0.2465122
186	0x3f1dfca6	0.61713636
187	0x3d6252dc	0.055254802
188	0x3e908154	0.2822367
189	0x3ddf4fdd	0.109039046
190	0xbd36c763	-0.044623744
191	0x3e50841c	0.20362896
192	0xbd558ed5	-0.05213817
193	0x3c37876f	0.0112017235
194	0xbd3ccd0d	-0.04609399
195	0xbd7e4432	-0.062076755
196	0xbd79bd90	-0.060971797
197	0x3e8b02ef	0.27150676
198	0x3e27072d	0.16311331
199	0x3f094a90	0.536294
200	0xbdf3fd5b	-0.11913558
201	0x3d01417a	0.031556584
202	0xbcb27e55	-0.021788755
203	0x3b9c8be2	0.0047774175
204	0xbeaa263e	-0.332323
205	0x3e158166	0.14600143
206	0xbdfda25e	-0.12384485
207	0xbec4a6dd	-0.38408557
208	0xbcdc4fcf	-0.026893524
209	0x3b0973a7	0.0020973475
210	0xbd904985	-0.07045273
211	0xbd5cb152	-0.053880043
212	0xbdaf9e5d	-0.08575127
213	0x3e8bacbc	0.27280223
214	0x3e10fa5d	0.14158006
215	0x3f1095c1	0.56478506
216	0xbe04e479	-0.1297778
217	0x3bddacd1	0.006764986
218	0xbc220313	-0.009888428
219	0x3d01d8b3	0.0317008
220	0xbe9f3199	-0.31092528
221	0x3de1119d	0.109896876
222	0xbe1da67d	-0.15395541
223	0xbeb90575	-0.36136976
224	0x3c6f4e51	0.014606074
225	0x3a9a55b3	0.0011774808
226	0xbc8db74e	-0.01729932
227	0xbe890778	-0.2676351
228	0xbd6eb370	-0.058276594
229	0x3e093645	0.13399608
230	0x3cd76ca2	0.026296917
231	0xbc1c4199	-0.009537124
232	0xbc4e4f75	-0.012592186
233	0x3e5c289c	0.21499866
234	0xbf665f9e	-0.8998965
235	0xbd56a74d	-0.052405644
236	0xbdb23546	-0.08701567
237	0x3dc05e3b	0.09392973
238	0x3ddbe88e	0.10737716
239	0x3ce004b5	0.027345994
240	0xbec85c71	-0.39133027
241	0x3e1b36cc	0.15157622
242	0xbca585e2	-0.020205442
243	0x3dfe3047	0.12411552
244	0xbbce07b4	-0.0062875394
245	0xbda3cf80	-0.07998562
246	0x3e1e85d4	0.15480739
247	0xbe20bed4	-0.15697795
248	0xbda6a4e9	-0.08136923
249	0x3dbf7713	0.093488835
250	0xbf14a534	-0.5806458
251	0x3e135f0a	0.14391723
252	0xbd57f514	-0.05272396
253	0x3d8e1022	0.06936671
254	0x3dc30f57	0.0952441
255	0xbe4d5f98	-0.20055997

decoder.2.bias f4 [31]
0	0x3e8a03bd	0.26955977
1	0xbce81ee9	-0.028335052
2	0x3f075271	0.5286017
3	0x3e7cafbf	0.24676417
4	0x3da9d37e	0.08292292
5	0xbe9508f8	-0.29108405
6	0xbe8d1195	-0.27552477
7	0xbee663f2	-0.44998127
8	0x3d9d2042	0.07672168
9	0x3e2d6c6f	0.16935895
10	0xbedc4643	-0.43022355
11	0xbdce5c89	-0.100762434
12	0x3ee8ce09	0.45469692
13	0x3f091ed7	0.5356268
14	0x3ebdcf49	0.3707221
15	0x3eeac717	0.45855018
16	0xbd9de1e6	-0.07709102
17	0x3eb0d7d7	0.34539673
18	0xbed2c7c6	-0.4116804
19	0x3e7ca08f	0.24670623
20	0x3f0e018b	0.55471104
21	0x3e0bb963	0.13644938
22	0x3e796d8c	0.24358195
23	0xbdabc934	-0.08387986
24	0xbe6d3301	-0.23163988
25	0xbe81bfd4	-0.25341666
26	0xbe67470a	-0.22585693
27	0x3cac1107	0.021004213
28	0x3e7417d3	0.23837213
29	0x3db3d8d8	0.08781594
30	0x3df6baf2	0.12047376
